FirstTuto/cifar_net.pth (torch_old, 249562 bytes, 10 tensors)

conv1.weight f4 [6, 3, 5, 5]
-0.18696094 -0.09609507 -0.1331498 0.07564682 0.112769894 0.10829449 -0.098407045 -0.21545084
-0.21645878 0.049435712 0.15960963 -0.04008729 -0.087884404 -0.22770883 -0.046783015 0.20537241
0.18283036 0.15397534 0.08946731 -0.011532894 0.019581163 0.05753727 0.047241226 0.17199555
0.05756743 -0.16758893 -0.23662746 -0.09380967 -0.029443018 0.08542474 0.12347157 -0.21083185
-0.2755482 -0.034018345 0.07266901 0.04696168 0.073555246 0.0008815511 -0.09913375 -0.084350124
0.01144047 0.059971888 0.19147716 0.13594484 -0.016199032 0.012469434 0.14010954 0.2821654
0.23794307 0.2332138 -0.00028843727 -0.1441402 0.040127955 0.09987315 -0.009312122 0.021500962
-0.21635152 -0.13782349 -0.117982805 -0.10537895 0.15185441 0.07826106 -0.048637368 -0.20670225
-0.19805679 0.14613098 0.23197708 0.06136923 -0.07181595 -0.011873008 -0.02255865 0.1393092
0.11039933 0.06460086 -0.10478635 0.037180398 0.1705068 0.20572141 -0.010253301 -0.010004315
-0.2431883 -0.21168153 -0.34015176 -0.17593832 -0.16089365 -0.30367106 -0.41085216 -0.42035
-0.1860177 -0.18995647 0.008936785 0.083737254 0.16762874 0.10328435 0.09843991 0.077425204
0.33754325 0.28830823 0.30655032 0.286949 0.26658162 0.14808512 0.33267686 0.25113732
0.24115783 -0.15897031 -0.28626668 -0.32744965 -0.20592803 -0.058848713 -0.18179801 -0.29542348
-0.30114564 -0.21638831 -0.19832644 -0.11716936 0.21489692 0.19828989 0.053733572 0.115037836
-0.021424524 0.18210381 0.2573327 0.21695141 0.012598698 0.18949546 0.19152975 0.33425158
0.069230705 0.14620368 0.12282461 0.026075013 -0.12829426 -0.05522692 0.089668475 -0.08045872
-0.23688947 -0.3738081 -0.21611768 -0.112045646 -0.090184346 -0.058178443 0.0056570484 0.111922085
0.0063898545 -0.22487512 -0.082744926 0.08836383 0.060427718 -0.056422018 0.15754464 0.24355225
0.07981434 0.060799874 -0.07497289 0.072759226 -0.05811399 -0.14496078 -0.21507806 -0.1774167
0.0026959612 -0.18927732 -0.3172279 -0.1903275 -0.06022784 -0.22809975 -0.31240323 -0.25229564
-0.09188758 0.12334162 -0.13245559 -0.24274899 -0.017788077 0.038060214 -0.15450756 0.116518594
0.15101287 0.19672912 -0.12712546 -0.08229232 -0.050721098 -0.13095146 -0.032238636 -0.2963355
-0.09526608 0.02334086 -0.15773927 -0.31657803 -0.1046746 -0.06999457 -0.016924117 -0.27245414
0.024331097 0.07168761 0.15604784 -0.08494001 -0.130747 0.061135404 0.085234724 0.07252279
0.01638479 0.20444928 0.09805019 0.15257305 -0.03368379 0.028943447 0.050599124 0.030413156
-0.026038112 0.16585454 0.06103339 -0.026356706 -0.09358233 -0.11629996 0.19224918 -0.015589003
0.056172032 -0.038881037 0.10434939 0.31221133 -0.04421632 0.063898765 0.12706572 0.29596648
0.2906019 0.30478022 0.28141767 0.361281 0.23100269 0.2098663 0.36637047 0.2999016
0.33171353 0.31305856 0.14074609 0.26706773 0.04913398 0.050379902 0.19096194 0.110308595
0.088344686 -0.09250869 -0.013916156 -0.11827948 -0.08357557 -0.017191505 -0.25725606 -0.14018683
-0.2930533 -0.20197721 -0.29062217 -0.119047716 -0.23888394 -0.20951293 -0.14548063 -0.17486322
00000000: b072 3fbe 7ecd c4bd 6c58 08be b8ec 9a3d
00000010: e7f3 e63d 80c9 dd3d a289 c9bd 259f 5cbe
00000020: 5fa7 5dbe 1a7d 4a3d b570 233e 9232 24bd
00000030: bdfc b3bd 812c 69be 8c9f 3fbd 254d 523e
00000040: e237 3b3e b6ab 1d3e a33a b73d 77f4 3cbc
00000050: ad68 a03c 33ac 6b3d 0480 413d 9a1f 303e
00000060: d3cb 6b3d 6f9c 2bbe 784e 72be 491f c0bd
00000070: 7c32 f1bc 2bf3 ae3d aade fc3d 4ee4 57be
00000080: a714 8dbe d256 0bbd 7dd3 943d e45a 403d
00000090: 22a4 963d e517 673a a306 cbbd c2bf acbd
000000a0: cf70 3b3c 15a5 753d 9712 443e 2035 0b3e
000000b0: d5b3 84bc 994c 4c3c e078 0f3e fc77 903e
000000c0: 59a7 733e 99cf 6e3e 6539 97b9 7d99 13be
000000d0: 365d 243d 4b8a cc3d df91 18bc c922 b03c
000000e0: 418b 5dbe 9a21 0dbe f8a0 f1bd ebd0 d7bd
000000f0: b97f 1b3e 5647 a03d fa37 47bd c1a9 53be
00000100: 66cf 4abe 5ca3 153e 668b 6d3e 4d5e 7b3d
00000110: 3e14 93bd 0187 42bc ebcc b8bc 12a7 0e3e
00000120: 0b19 e23d 754d 843d 3a9a d6bd 794a 183d
00000130: 5699 2e3e a2a8 523e 76fd 27bc 23e9 23bc
00000140: 5b06 79be 0bc3 58be 5f28 aebe 2d29 34be
00000150: 4ec1 24be c67a 9bbe 375b d2be 1d38 d7be
00000160: 6d7b 3ebe f383 42be 986b 123c 707e ab3d
00000170: dea6 2b3e bf86 d33d dd9a c93d 1b91 9e3d
00000180: 78d2 ac3e 239d 933e 2af4 9c3e fbea 923e
00000190: 637d 883e a0a3 173e 9f54 aa3e 1295 803e
000001a0: 14f2 763e 1dc9 22be 8c91 92be 7ba7 a7be
000001b0: ccde 52be 590b 71bd 4229 3abe bf41 97be
000001c0: c32f 9abe e694 5dbe 1616 4bbe 7df6 efbd
000001d0: f00d 5c3e 810c 4b3e bc17 5c3d f598 eb3d
000001e0: 7c82 afbc 6c79 3a3e 1dc1 833e 8328 5e3e
000001f0: c56a 4e3c 190b 423e 6020 443e 0623 ab3e
00000200: d4c8 8d3d 6bb6 153e 788b fb3d 449b d53c
00000210: 925f 03be 9f35 62bd 1ba4 b73d 8bc7 a4bd
00000220: 2793 72be c663 bfbe f44d 5dbe 3078 e5bd
00000230: 92b2 b8bd 854c 6ebd c35e b93b 6837 e53d
00000240: fc61 d13b aa45 66be 2c76 a9bd 18f8 b43d
00000250: 0e83 773d c61a 67bd 6253 213e c365 793e
00000260: b375 a33d 4a09 793d 638b 99bd ca02 953d
00000270: ef08 6ebd 9970 14be 6c3d 5cbe b9ac 35be
00000280: b9ae 303b ead1 41be b26b a2be 36e5 42be
00000290: 78b1 76bd fb92 69be 51f3 9fbe e52c 81be
000002a0: 8e2f bcbd 889a fc3d 70a2 07be 3193 78be
000002b0: 4db8 91bc 07e5 1b3d 3b37 1ebe 4da1 ee3d
000002c0: 1ea3 1a3e 5c73 493e 2d2d 02be e088 a8bd
000002d0: edc0 4fbd 2418 06be a90c 04bd 49b9 97be
000002e0: dd1a c3bd 5535 bf3c 6786 21be 8416 a2be
000002f0: a35f d6bd 5059 8fbd 72a4 8abc 1c7f 8bbe
00000300: 0252 c73c f4d0 923d 01cb 1f3e 07f5 adbd
00000310: 8be2 05be 1e69 7a3d 8b8f ae3d d486 943d
00000320: 6539 863c 275b 513e 8ace c83d 1c3c 1c3e
00000330: 04f8 09bd cf1a ed3c 0741 4f3d 0325 f93c
00000340: e14d d5bc c6d5 293e 26fe 793d 05ea d7bc
00000350: 18a8 bfbd ac2e eebd f8dc 443e 0569 7fbc
00000360: a514 663d b941 1fbd 22b5 d53d 2ada 9f3e
00000370: 2c1c 35bd 5bdd 823d 841d 023e eb88 973e
00000380: c6c9 943e 270c 9c3e fa15 903e d3f9 b83e
00000390: f88b 6c3e 31e7 563e e994 bb3e b48c 993e
000003a0: 5bd6 a93e 3649 a03e be1f 103e 1abd 883e
000003b0: b640 493d 285b 4e3d 878b 433e 79e9 e13d
000003c0: 0fee b43d 3275 bdbd 9700 64bc 833c f2bd
000003d0: ab29 abbd 33d5 8cbc 11b7 83be 238d 0fbe
000003e0: 150b 96be 1dd3 4ebe 6ecc 94be 4acf f3bd
000003f0: fe9d 74be 8f8a 56be e0f8 14be 580f 33be

conv1.bias f4 [6]
-0.21693572 -0.3016657 0.09114902 -0.41532406 0.007462415 -0.0038875872
00000000: 6624 5ebe ed73 9abe 56ac ba3d 5ba5 d4be
00000010: 4687 f43b e4c6 7ebb

conv2.weight f4 [16, 6, 5, 5]
0.0031817926 -0.105656795 -0.07447823 -0.23045367 -0.19694224 -0.07593901 -0.14296566 -0.18392546
-0.11450059 -0.12088124 0.070869766 -0.09088513 -0.081121035 -0.13125484 -0.07529916 0.20657949
0.1958217 0.10008886 -0.027763037 0.124196626 0.014371651 0.16577257 0.11336384 0.021929434
0.09802548 -0.1193908 -0.011269661 -0.04510854 -0.16272475 -0.033584464 -0.026714163 -0.22284299
-0.09297124 -0.15591148 0.0040323865 0.011287265 -0.11079934 0.02868112 -0.07531089 0.0956405
0.10186255 0.082957976 0.10103716 0.10311389 0.17364 0.01802932 0.25297314 0.2813889
0.23633607 0.08021285 -0.07443949 -0.008445219 0.046417277 -0.08501917 0.046414945 -0.043967176
0.1007523 -0.00944992 -0.047481682 0.21550147 -0.13385843 0.0037214009 -0.119161606 0.057022065
0.09823606 -0.23333105 0.0030483226 0.060763843 0.11125019 0.048503947 0.038014747 0.19747181
0.085015655 0.1352847 0.017962324 0.08989495 0.05370884 -0.003481022 0.08641702 0.07134322
0.0747819 -0.026689539 0.066249385 -0.05708926 0.06924088 0.09043435 0.082866035 0.055208832
0.034831505 0.04871734 0.14616884 0.09735724 0.17392157 0.10205064 -0.1356011 -0.05909471
-0.09665773 -0.1555468 -0.1777349 -0.250707 0.13949198 0.14316136 0.12607042 0.08227068
-0.0022312598 0.10796198 0.022414811 0.024831904 -0.06680335 -0.18660775 0.0055417377 0.04835019
0.06177866 -0.0074694334 -0.15923001 -0.10572181 -0.13519534 -0.023306848 -0.14962131 -0.118424594
-0.0037764001 -0.06784807 -0.1729998 -0.06454987 0.09616398 0.008033704 -0.12669778 0.060456485
-0.0250453 -0.07429089 0.336923 0.023411144 0.117357194 -0.06271529 0.07730364 0.32621756
0.2039377 0.13208443 0.06673756 0.25183 0.06635785 -0.039866045 0.024087077 -0.11119325
0.07645374 -0.4142893 -0.36371574 -0.42167845 -0.42984396 -0.1683614 -0.057224695 0.02229549
-0.0522251 0.00320068 0.040310044 0.015117667 0.060081314 -0.020628417 0.062162492 -0.051507156
0.056114774 -0.05810417 -0.009844428 -0.055429272 0.03856001 0.0065403203 0.045473244 0.06917877
0.06730155 -0.04918263 -0.03964678 -0.040704284 -0.03707007 0.053307228 -0.06440462 0.0047188913
-0.0637952 0.06674977 0.019152869 -0.030542329 0.013074763 -0.0037677202 -0.033369858 -0.04590265
-0.01271619 0.012146114 -0.011935894 -0.029414881 -0.06869644 0.019600533 -0.018163752 -0.012938273
-0.06730188 0.016531203 -0.06364434 -0.032979604 0.045029826 -0.04439898 -0.07210182 -0.01396429
0.06040734 0.067664035 -0.08193978 -0.03235246 -0.03668751 -0.07544896 0.043552004 0.009727579
-0.031184608 0.056289583 0.05812612 -0.029401429 -0.07845528 0.00038248554 0.03170289 0.019113686
-0.056945574 -0.05813702 0.02272348 0.02643135 -0.078331776 0.070733376 0.009612456 0.017115302
0.00773904 -0.03551646 0.029801272 0.062564194 -0.07991754 0.0479846 -0.033610154 -0.041735575
0.0025405812 -0.07360508 -0.046777494 0.011269019 -0.062166937 -0.062399816 -0.005362333 0.017499968
0.07826249 -0.078176536 -0.0746558 -0.07049686 0.05632306 -0.044946373 0.032539587 0.010854948
0.07026359 -0.05188259 0.07535223 -0.07574137 0.058192324 0.07431337 -0.055219874 -0.034560323
00000000: 9f85 503b 9762 d8bd 0b88 98bd 0cfc 6bbe
00000010: 3aab 49be e985 9bbd 9765 12be f556 3cbe
00000020: 497f eabd 9590 f7bd 2b24 913d fc21 babd
00000030: c922 a6bd ab67 06be 7236 9abd 9389 533e
00000040: 7c85 483e 63fb cc3d 4f6f e3bc cd5a fe3d
00000050: 1377 6b3c 49c0 293e 4d2b e83d 5ba5 b33c
00000060: 95c1 c83d 2a83 f4bd 62a4 38bc bcc3 38bd
00000070: 51a1 26be dd8f 09bd a9d7 dabc f430 64be
00000080: b567 bebd 42a7 1fbe 1c22 843b 39ee 383c
00000090: c4ea e2bd abf4 ea3c 993c 9abd 2bdf c33d
000000a0: 509d d03d dfe5 a93d 92ec ce3d 602d d33d
000000b0: afce 313e 39b2 933c b285 813e 3512 903e
000000c0: 1502 723e a246 a43d bb73 98bd d15d 0abc
000000d0: 0b20 3e3d 881e aebd 991d 3e3d ed16 34bd
000000e0: 3957 ce3d d6d3 1abc 277c 42bd 6bac 5c3e
000000f0: 2f12 09be bfe2 733b 000b f4bd f88f 693d
00000100: fd2f c93d 56ee 6ebe 5ec6 473b 82e3 783d
00000110: 24d7 e33d 13ac 463d 5ab5 1b3d 0d36 4a3e
00000120: b01c ae3d 1388 0a3e b925 933c d81a b83d
00000130: cdfd 5b3d dc21 64bb 68fb b03d 651c 923d
00000140: 4127 993d 05a4 dabc c2ad 873d 6ed6 69bd
00000150: 2ace 8d3d a535 b93d abb5 a93d a822 623d
00000160: 7bab 0e3d d58b 473d 49ad 153e 3c63 c73d
00000170: 7f18 323e edff d03d 04db 0abe 4b0d 72bd
00000180: 7df4 c5bd a947 1fbe 2300 36be ab5c 80be
00000190: fcd6 0e3e e498 123e 9b18 013e 887d a83d
000001a0: 543a 12bb 2c1b dd3d 449f b73c 476c cb3c
000001b0: 32d0 88bd 1a16 3fbe 7797 b53b d90a 463d
000001c0: 9f0b 7d3d 26c2 f4bb 310d 23be ad84 d8bd
000001d0: a670 0abe 01ee bebc 5436 19be 9888 f2bd
000001e0: 7b7d 77bb eef3 8abd dc26 31be b932 84bd
000001f0: 9ff1 c43d cc9f 033c 10bd 01be 38a1 773d
00000200: cd2b cdbc d225 98bd 2c81 ac3e bac8 bf3c
00000210: f858 f03d e070 80bd 5f51 9e3d fd05 a73e
00000220: 0bd5 503e 2441 073e b4ad 883d ddef 803e
00000230: a0e6 873d 944a 23bd 4352 c53c 49b9 e3bd
00000240: c793 9c3d ba1d d4be f338 babe 3de6 d7be
00000250: 8214 dcbe ee66 2cbe 7164 6abd 08a5 b63c
00000260: fde9 55bd 80c2 513b 251c 253d 17b0 773c
00000270: d317 763d edfc a8bc 199e 7e3d 2bf9 52bd
00000280: 9bd8 653d a3fe 6dbd 864a 21bc ce09 63bd
00000290: 1af1 1d3d 2f50 d63b 2742 3a3d 99ad 8d3d
000002a0: 65d5 893d ba73 49bd a964 22bd 89b9 26bd
000002b0: c9d6 17bd ae58 5a3d 92e6 83bd eea0 9a3b
000002c0: 0fa7 82bd 1ab4 883d 7ae6 9c3c e833 fabc
000002d0: 8837 563c dbeb 76bb d5ae 08bd 6b04 3cbd
000002e0: 9157 50bc 7f00 473c c58e 43bc 7af7 f0bc
000002f0: b8b0 8cbd 4c91 a03c 26cc 94bc 0dfb 53bc
00000300: 91d5 89bd 726c 873c f757 82bd 9f15 07bd
00000310: 3271 383d b4db 35bd 1eaa 93bd 7aca 64bc
00000320: b06d 773d 7193 8a3d 0bd0 a7bd 0384 04bd
00000330: a445 16bd fc84 9abd 9663 323d 6c60 1f3c
00000340: dd76 ffbc e88f 663d a815 6e3d 44db f0bc
00000350: 29ad a0bd 5788 c839 e4da 013d 4e94 9c3c
00000360: c33f 69bd 1521 6ebd 9726 ba3c 8f86 d83c
00000370: 696c a0bd a9dc 903d 907d 1d3c 6435 8c3c
00000380: c697 fd3b b579 11bd cc21 f43c a821 803d
00000390: cfab a3bd 808b 443d cdaa 09bd ecf2 2abd
000003a0: e17f 263b 43be 96bd c299 3fbd b1a1 383c
000003b0: c2a2 7ebd f396 7fbd 82b6 afbb 185c 8f3c
000003c0: 1648 a03d 051b a0bd 24e5 98bd a860 90bd
000003d0: 02b3 663d b019 38bd 3b48 053d f4d8 313c
000003e0: 5be6 8f3d d782 54bd 4552 9a3d 4b1e 9bbd
000003f0: 135b 6e3d 9c31 983d 3c2e 62bd 208f 0dbd

conv2.bias f4 [16]
-0.83256376 -0.058219705 -0.3426848 -0.045417864 0.23445982 0.108008616 0.7826368 0.5002517
-0.54327273 0.21341214 -0.37498203 0.077469654 -0.4164659 0.26243776 0.4476556 0.022658389
00000000: e622 55bf c977 6ebd 6274 afbe 1508 3abd
00000010: 3c16 703e 9f33 dd3d e35a 483f 7f10 003f
00000020: ec13 0bbf b688 5a3e a5fd bfbe 69a8 9e3d
00000030: 053b d5be 3e5e 863e 1d33 e53e 169e b93c

fc1.weight f4 [120, 400]
0.034836445 0.10384523 0.045828234 0.010398221 0.068614416 0.08327624 0.025897289 0.080424964
0.032477163 0.048972283 0.031971876 -0.037299417 -0.014269725 0.0012036643 -0.00550699 0.054966625
-0.041156117 0.013381248 0.053712383 0.06708782 0.015684087 0.023035448 0.06177763 0.06794157
0.067163266 0.02441604 0.006621506 0.015485362 0.008795498 -0.017730268 0.0010942349 -0.022667957
-0.025042124 0.003733238 0.012608045 -0.013976655 0.012908618 -0.029206268 0.032373864 -0.027152402
0.04873267 0.0037924326 0.0441639 -0.046553224 0.013186246 0.014283874 0.03554031 0.03650306
0.04371212 -0.010475552 0.053191993 -0.01712408 0.029702682 -0.0074285427 -0.03156078 0.015648728
-0.068921946 -0.030060127 9.453143e-05 -0.036751777 -0.05626257 -0.06746574 -0.018456297 -0.034228195
-0.029571544 0.018021952 -0.06637706 -0.07213526 -0.0013794128 0.058906265 0.041692324 -0.03160086
-0.018385282 -0.055461735 -0.052116565 -0.03327034 -0.022195254 0.007396848 -0.047643512 0.016325053
-0.041019566 0.0144192455 0.004878169 0.014203458 -0.01777178 0.014096056 -0.058212783 0.0072602876
-0.028161468 0.010409047 -0.03610395 -0.037576046 -0.03149074 0.012625985 0.07131427 0.012153783
0.03460134 -0.06305305 0.030258454 0.03561943 -0.002619465 -0.07428152 -0.014836705 -0.024678914
0.022091564 0.04470485 0.048502102 0.044406332 -0.015486365 0.0357034 0.007692702 0.00066496315
0.016960144 -0.044793997 0.009474559 -0.03143444 -0.042214986 7.656199e-06 -0.05204116 -0.08552013
0.052311856 0.051779464 -0.021485396 0.070437945 0.06448204 0.027953885 -0.0033114464 -0.053130742
-0.050997633 0.04299387 0.005319487 0.007968387 -0.065783575 0.024486218 0.011118453 -0.058218766
-0.005785315 -0.084117755 -0.051854063 -0.04577802 -0.012405108 -0.056369994 -0.08553489 -0.004069786
0.04028141 -0.0190345 -0.046105128 -0.0449155 0.01500011 0.10698801 -0.013870669 0.052848224
-0.046226252 -0.031910773 0.047081575 -0.02839538 -0.041159626 -0.017829925 0.048847366 0.018342765
0.0024155953 -0.017748462 0.004041504 -0.0020099992 -0.01994379 -0.06896913 -0.07804668 -0.016381213
-0.01093035 -0.040738024 -0.04232198 -0.012783734 -0.045429483 0.004145689 0.027626429 -0.045827873
0.0102041345 0.0429057 -0.06542677 -0.062407702 -0.0019260244 -0.014336307 -0.022864455 -0.041986484
-0.05067744 0.018032942 0.098853804 0.062433165 0.032707594 0.0752932 -0.0014704688 0.082392424
0.061206784 0.050146554 0.06484106 -0.012890434 0.005477949 -0.006007997 0.0010608389 0.019638965
-0.01546263 0.06187341 0.019440055 0.035372548 0.013056418 -0.07971508 -0.06983164 -0.023381807
-0.045913313 -0.080827735 0.0019118413 0.015340529 -0.014294472 -0.008568208 -0.03035731 0.029981956
-0.00859751 -0.059126776 0.07234538 0.052432798 0.004860013 -0.0013079876 0.07138853 -0.021153677
0.02149014 -0.011553651 -0.031957902 -0.017183082 -0.016704474 -0.073506065 0.017717725 -0.019703053
0.023979176 0.0016087661 0.037158597 0.007905155 -0.009885074 0.018729448 -0.022696752 0.018132161
-0.015419946 -0.02112241 -0.036788695 -0.025009576 -0.043561514 -0.06999343 -0.046525598 -0.07768414
-0.055508155 -0.032526433 -0.050401974 -0.036571927 -0.040831488 -0.07773761 -0.019566106 -0.022198906
00000000: a9b0 0e3d cfac d43d 63b6 3b3d 4d5d 2a3c
00000010: b785 8c3d bc8c aa3d 8d26 d43c d8b5 a43d
00000020: c606 053d 2997 483d f1f4 023d 46c7 18bd
00000030: 91cb 69bc 46c4 9d3a fb73 b4bb af24 613d
00000040: 5193 28bd 063d 5b3c 8401 5c3d 5765 893d
00000050: ea7b 803c d6b4 bc3c 8a0a 7d3d f324 8b3d
00000060: e58c 893d 2604 c83c 38f9 d83b 51b6 7d3c
00000070: fe1a 103c 113f 91bc 6e6c 8f3a 27b2 b9bc
00000080: 2425 cdbc 57a9 743b f991 4e3c 57fe 64bc
00000090: ab7e 533c fc41 efbc 759a 043d b76e debc
000000a0: e89b 473d 768a 783b 35e5 343d 98ae 3ebd
000000b0: 200b 583c e906 6a3c b792 113d 3c84 153d
000000c0: 7b0b 333d a6a1 2bbc d9df 593d cc47 8cbc
000000d0: 0a53 f33c 226b f3bb e045 01bd c331 803c
000000e0: f326 8dbd a840 f6bc 2d3f c638 0889 16bd
000000f0: 9573 66bd 7a2b 8abd a931 97bc dd32 0cbd
00000100: 0640 f2bc c6a2 933c b2f0 87bd a7bb 93bd
00000110: 6acd b4ba b247 713d 92c5 2a3d e76f 01bd
00000120: bb9c 96bc d82b 63bd 2e78 55bd 7b46 08bd
00000130: d2d2 b5bc 4261 f23b d825 43bd 1ebc 853c
00000140: 2204 28bd b33e 6c3c 0cd9 9f3b 9fb5 683c
00000150: 2096 91bc 25f3 663c 8770 6ebd b5e7 ed3b
00000160: e1b2 e6bc b58a 2a3c bce1 13bd 57e9 19bd
00000170: 6ffc 00bd 38dd 4e3c 370d 923d a920 473c
00000180: 22ba 0d3d f521 81bd 94e0 f73c aee5 113d
00000190: 55ab 2bbb e920 98bd a715 73bc 6f2b cabc
000001a0: 5ef9 b43c 6f1c 373d 24aa 463d 6ae3 353d
000001b0: 86ba 7dbc ba3d 123d 1013 fc3b ec50 2e3a
000001c0: 00f0 8a3c e979 37bd 2e3b 1b3c 66c1 00bd
000001d0: 9fe9 2cbd 2073 0037 1d29 55bd 2e25 afbd
000001e0: f544 563d b416 543d 2402 b0bc c541 903d
000001f0: 290f 843d 8cff e43c da04 59bb 9f9f 59bd
00000200: e5e2 50bd 571a 303d 174f ae3b d68d 023c
00000210: 8ab9 86bd 5297 c83c 2c2a 363c cd76 6ebd
00000220: bd92 bdbb ee45 acbd ed64 54bd bc81 3bbd
00000230: cb3e 4bbc 39e4 66bd eb2c afbd d75b 85bb
00000240: 1ffe 243d 3dee 9bbc bbd8 3cbd 51f9 37bd
00000250: 05c3 753c 881c db3d cd41 63bc 6177 583d
00000260: bd57 3dbd dfb4 02bd 9cd8 403d 6e9d e8bc
00000270: ff96 28bd 1010 92bc 2d14 483d 9143 963c
00000280: f74e 1e3b 3965 91bc 986e 843b 31ba 03bb
00000290: 2961 a3bc b03f 8dbd f0d6 9fbd e531 86bc
000002a0: 3615 33bc eadc 26bd d059 2dbd de72 51bc
000002b0: 4414 3abd 8fd8 873b d250 e23c 02b6 3bbd
000002c0: 3e2f 273c e3bd 2f3d 78fe 85bd 389f 7fbd
000002d0: a872 fcba d4e2 6abc 3d4e bbbc 05fa 2bbd
000002e0: 2693 4fbd d2b9 933c dd73 ca3d ebb9 7f3d
000002f0: 66f8 053d 5233 9a3d bfbc c0ba 5cbd a83d
00000300: f7b3 7a3d 7966 4d3d 64cb 843d 6632 53bc
00000310: 5e80 b33b bbde c4bb d90b 8b3a e5e1 a03c
00000320: f956 7dbc f96e 7d3d c040 9f3c cee2 103d
00000330: 96ea 553c a941 a3bd e403 8fbd 348b bfbc
00000340: 990f 3cbd 0389 a5bd c096 fa3a d856 7b3c
00000350: 5c33 6abc ab61 0cbc e5af f8bc b89c f53c
00000360: 92dc 0cbc eb2e 72bd d129 943d c6c3 563d
00000370: be40 9f3b c870 abba 2634 923d 7a4a adbc
00000380: 170c b03c 864b 3dbc 4ae6 02bd 89c3 8cbc
00000390: d2d7 88bc 598a 96bd c324 913c 4c68 a1bc
000003a0: fa6f c43c 3cdd d23a 9d33 183d a084 013c
000003b0: 01f5 21bc 806e 993c 8aee b9bc e689 943c
000003c0: f1a3 7cbc e808 adbc beaf 16bd e2e0 ccbc
000003d0: 8f6d 32bd b758 8fbd a091 3ebd dd18 9fbd
000003e0: 855c 63bd 703a 05bd 4d72 4ebd 72cc 15bd
000003f0: eb3e 27bd e534 9fbd 1949 a0bc 7bda b5bc

fc1.bias f4 [120]
0.010923036 -0.048080575 0.1088655 -0.03700396 -0.11344969 -0.014807429 -0.07270928 -0.13717869
0.07777724 0.3423587 0.043951366 0.010270224 -0.032313757 -0.06748107 0.05339401 -0.02188554
0.17364436 0.11202779 -0.1339649 0.073469594 -0.0017209151 -0.0703153 -0.011910671 0.032378584
-0.13335113 0.114304855 -0.03306257 0.033236757 0.013363394 -0.0026472711 -0.18486992 -0.011109104
0.07655747 0.19626425 0.0931786 0.023553265 0.040071893 0.1471308 0.1513853 0.06506397
-0.010606461 -0.006839166 -0.021655945 0.12459409 -0.26873967 -0.002240902 0.07546967 0.11379852
0.22888564 0.014077161 0.027792295 0.052528657 0.10048787 0.008588844 0.16432185 -0.01538176
-0.108631454 -0.008428498 -0.01679223 0.11610592 -0.0055218264 0.10031996 0.012762457 -0.023589756
0.06936358 0.061921343 0.04254286 0.04141064 -0.08352472 0.048051093 0.017007707 -0.007968538
0.081104696 -0.10816806 0.03874971 0.022701006 -0.08813667 0.08864556 -0.0067071216 0.015739083
-0.068009324 -0.056467697 -0.010290439 0.06565787 -0.10438888 0.1527703 -0.07208355 0.21991865
0.014160807 -0.047615852 0.06514516 0.065876134 -0.027457252 0.0426189 0.05401415 0.010587599
-0.044407394 -0.0017336099 -0.001051885 -0.0035484836 -0.010690948 -0.003831488 0.035535593 -0.1973165
0.08644336 -0.1486771 0.024607599 0.04333597 -0.014174945 -0.03357493 -0.0034841404 0.055255033
0.07343385 0.0010764223 -0.09445699 0.043309078 0.018868143 0.1473466 0.20104182 -0.017283348
00000000: 89f6 323c 23f0 44bd e0f4 de3d 7791 17bd
00000010: 5058 e8bd dc9a 72bc 9ae8 94bd 9278 0cbe
00000020: ac49 9f3d a449 af3e 5906 343d 7144 283c
00000030: 6e5b 04bd 8433 8abd adb3 5a3d 4e49 b3bc
00000040: d4cf 313e d36e e53d 182e 09be 3a77 963d
00000050: 5490 e1ba 7801 90bd fa24 43bc 689f 043d
00000060: 338d 08be aa18 ea3d 9e6c 07bd 4423 083d
00000070: 23f2 5a3c d77d 2dbb 8a4e 3dbe f602 36bc
00000080: 2aca 9c3d 7ff9 483e 6cd4 be3d c7f2 c03c
00000090: 6d22 243d 75a9 163e c004 1b3e 4240 853d
000000a0: b9c6 2dbc 151b e0bb cf67 b1bc 302b ff3d
000000b0: 3f98 89be 19dc 12bb d88f 9a3d 330f e93d
000000c0: ff60 6a3e e5a3 663c abac e33c 4a28 573d
000000d0: 96cc cd3d 39b8 0c3c fd43 283e c703 7cbc
000000e0: 2b7a debd af17 0abc dc8f 89bc f1c8 ed3d
000000f0: 70f0 b4bb 8d74 cd3d a019 513c 4e3f c1bc
00000100: 7e0e 8e3d 3ca1 7d3d 6c41 2e3d 349e 293d
00000110: 020f abbd 39d1 443d bf53 8b3c 798e 02bc
00000120: 381a a63d 3787 ddbd 04b8 1e3d 76f7 b93c
00000130: 0081 b4bd ce8b b53d 6ac7 dbbb 40ef 803c
00000140: 7948 8bbd ac4a 67bd 3b99 28bc a277 863d
00000150: d6c9 d5bd d16f 1c3e 8aa0 93bd 5b32 613e
00000160: bb02 683c d708 43bd d36a 853d 11ea 863d
00000170: 08ee e0bc 2891 2e3d f13d 5d3d 9c77 2d3c
00000180: 87e4 35bd 4c3a e3ba 67df 89ba ad8d 68bb
00000190: 1629 2fbc b419 7bbb c58d 113d 560d 4abe
000001a0: 3709 b13d cf3e 18be e095 c93c 0f81 313d
000001b0: 073e 68bc de85 09bd 2d56 64bb 1a53 623d
000001c0: 7d64 963d bd16 8d3a ab72 c1bd dc64 313d
000001d0: 5d91 9a3c 07e2 163e e8dd 4d3e cf95 8dbc

fc2.weight f4 [84, 120]
-0.07136545 0.06496195 0.008003845 0.001082898 0.02662318 -0.06629381 -0.089673325 0.09989045
-0.01522559 0.07493127 -0.07883929 0.07997292 0.049048122 0.016503787 -0.07388116 -0.00089172006
0.021717222 0.04806475 -0.019058418 0.010258166 -0.009965706 0.023924185 -0.095163375 -0.0341093
-0.036532763 -0.049251094 0.018265152 0.09146332 -0.059457395 -0.007091757 -0.11033049 -0.100473896
-0.033711623 0.030865176 0.015315716 -0.054656424 -0.0042412723 -0.06497675 -0.05877267 -0.067095734
-0.028236862 0.059416536 0.041196853 0.12559238 -0.05656461 -0.08761571 0.007763147 0.094292626
-0.06429109 0.04619462 0.015070488 0.0050174994 -0.030460529 0.013576564 0.07652169 0.02408211
0.04436256 -0.08927189 -0.07539603 -0.088169575 0.06025808 -0.06335627 0.078367144 0.020419562
0.0436708 -0.056473233 -0.019827237 -0.056695335 -0.040364295 0.09383744 0.099798575 -0.07726327
0.06591506 0.03950807 -0.037439823 -0.05964024 0.012579501 0.026433025 0.052627683 0.0094808005
0.041438732 -0.031347852 0.025454106 -0.0064273146 0.0576045 -0.08447927 -0.074669026 0.08805842
-0.091134705 0.082655475 0.007934887 -0.07292828 0.020608379 0.027310882 -0.0220602 0.0018608622
0.06310503 -0.020615548 -0.018541584 0.034792207 -0.021192247 0.00040190027 -0.023776896 0.07340904
0.09933783 -0.09576383 0.02196779 -0.015306108 0.026148617 -0.03598406 -0.051678576 -0.004445516
0.033442587 -0.068346776 0.0065683643 -0.12356585 -0.044908594 0.023985695 0.13501726 0.05163909
0.022705765 -0.015375581 0.020333013 -0.051776916 0.11747134 -0.03631392 -0.08764571 0.020161588
0.0053954823 -0.094945334 -0.013291822 0.08758794 -0.06960799 -0.03353749 -0.086353056 -0.014854624
0.050309006 -0.075380325 0.029099504 -0.12841563 -0.0067099775 -0.058710016 -0.03673091 -0.057612833
0.057440452 0.11330726 -0.09118411 0.12213745 -0.031862494 -0.0060801907 0.056925897 0.037627246
-0.0375859 -0.10724747 0.011694644 0.10986736 0.11108554 -0.033029854 0.0024679475 -0.11731079
0.017883856 0.0621711 -0.001335952 -0.046030644 0.031623345 -0.013329223 -0.07766973 -0.020531874
-0.07425531 0.08103658 -0.025329009 -0.015901871 -0.10630846 0.02644646 -0.06418775 -0.03702327
0.16549975 -0.13503593 -0.043577395 0.06923175 -0.0316494 -0.07808949 0.0380785 -0.06925465
-0.04087126 -0.108578846 0.02657652 -0.095080435 0.14359939 0.058707405 0.03402135 0.11937346
-0.06532689 0.025745312 -0.003487156 -0.05501579 0.087335594 -0.11562417 0.08821505 0.038690716
-0.025673717 0.07393734 -0.050004963 -0.1158119 -0.11097819 0.03470943 0.08396439 -0.123071484
-0.023170898 0.116199814 0.03338655 -0.100264356 0.060671892 -0.12648003 -0.014349303 0.007021205
-0.007427165 0.0073173093 -0.18309015 -0.08247101 0.1340336 -0.060308587 -0.09902837 0.06615526
0.06377543 -0.06451196 -0.02965364 -0.009011781 -0.049384877 -0.07702379 -0.045615487 0.081098236
0.07627083 0.057228148 0.06530754 0.07527394 0.029592443 0.046627577 0.080954716 -0.08507741
0.047793195 0.010355168 0.029371105 0.06751674 0.13348517 0.036644563 -0.11563816 0.06682914
-0.01388471 -0.1201184 -0.104890175 0.06379826 -0.12184016 -0.069952324 0.010046766 -0.09997826
00000000: 0d28 92bd c50a 853d 8f22 033c 07f0 8d3a
00000010: db18 da3c 0dc5 87bd a6a6 b7bd 5d93 cc3d
00000020: c174 79bc 9175 993d 7e76 a1bd d8c8 a33d
00000030: afe6 483d f332 873c 014f 97bd 52c2 69ba
00000040: 51e8 b13c 8bdf 443d 6620 9cbc de11 283c
00000050: 3347 23bc a7fc c33c 04e5 c2bd 31b6 0bbd
00000060: 61a3 15bd 84bb 49bd cda0 953c 1f51 bb3d
00000070: 9989 73bd f861 e8bb f4f4 e1bd 42c5 cdbd
00000080: 3315 0abd f7d8 fc3c c5ee 7a3c 6adf 5fbd
00000090: 5ffa 8abb 8812 85bd 9cbb 70bd 7d69 89bd
000000a0: fe50 e7bc c15e 733d 08be 283d 4a9b 003e
000000b0: 4bb0 67bd de6f b3bd ff61 fe3b 7e1c c13d
000000c0: 0cab 83bd 9236 3d3d 35ea 763c d669 a43b
000000d0: 5c88 f9bc 3d70 5e3c 67b7 9c3d d847 c53c
000000e0: 84b5 353d 2ed4 b6bd 3c69 9abd 4092 b4bd
000000f0: 2dd1 763d efc0 81bd f47e a03d ed46 a73c
00000100: 27e0 323d 7a50 67bd bb6c a2bc 5e39 68bd
00000110: 0855 25bd d82d c03d 3263 cc3d 353c 9ebd
00000120: 7afe 863d 37d3 213d 805a 19bd 5349 74bd
00000130: 401a 4e3c 128a d83c 2090 573d 5c55 1b3c
00000140: a9bb 293d 9b66 00bd 2185 d03c 399c d2bb
00000150: b2f2 6b3d 7803 adbd 13ec 98bd f957 b43d
00000160: d5a4 babd 4647 a93d 5401 023c 6c5b 95bd
00000170: e7d2 a83c 12bb df3c 98b7 b4bc 2de8 f33a
00000180: 363d 813d f0e1 a8bc 85e4 97bc 4682 0e3d
00000190: 5d9b adbc 24b6 d239 c4c7 c2bc 7b57 963d
000001a0: a271 cb3d d41f c4bd cbf5 b33c 78c6 7abc
000001b0: a035 d63c 0664 13bd eaac 53bd b1ab 91bb
000001c0: 18fb 083d 65f9 8bbd 6f3b d73b 1810 fdbd
000001d0: 13f2 37bd a67d c43c f741 0a3e 8383 533d
000001e0: 7101 ba3c dce9 7bbc 6b91 a63c 0814 54bd
000001f0: d094 f03d e8bd 14bd 987f b3bd ea29 a53c
00000200: 96cc b03b b372 c2bd f1c5 59bc 4e61 b33d
00000210: a28e 8ebd 9b5e 09bd dfd9 b0bd cf60 73bc
00000220: d110 4e3d 0061 9abd 1562 ee3c 637f 03be
00000230: 5fdf dbbb ea79 70bd 2773 16bd 6ffb 6bbd
00000240: ae46 6b3d a30d e83d bcbe babd 3323 fa3d
00000250: 3f82 02bd 563c c7bb 212b 693d 071f 1a3d
00000260: acf3 19bd 90a4 dbbd e49a 3f3c 2302 e13d
00000270: d180 e33d 504a 07bd 4abd 213b a440 f0bd
00000280: 2a81 923c 20a7 7e3d 1c1b afba a18a 3cbd
00000290: 7b87 013d d062 5abc 4f11 9fbd 7632 a8bc
000002a0: 2b13 98bd 82f6 a53d c87e cfbc a444 82bc
000002b0: 40b8 d9bd 3fa6 d83c de74 83bd b6a5 17bd
000002c0: c478 293e dc46 0abe 367e 32bd 60c9 8d3d
000002d0: cda2 01bd 62ed 9fbd 34f8 1b3d 62d5 8dbd
000002e0: 9f68 27bd 965e debd 01b7 d93c 88b9 c2bd
000002f0: b80b 133e 2d77 703d f959 0b3d 137a f43d
00000300: 1bca 85bd d5e7 d23c c588 64bb 3d58 61bd
00000310: 01dd b23d 5dcc ecbd 18aa b43d 287a 1e3d
00000320: b051 d2bc 766c 973d 01d2 4cbd ca2e edbd
00000330: 8948 e3bd 7a2b 0e3d 86f5 ab3d e70c fcbd
00000340: e5d0 bdbc 2bfa ed3d 56c0 083d 6657 cdbd
00000350: 1783 783d fb83 01be 5719 6bbc 2312 e63b
00000360: 935f f3bb 0ac6 ef3b fc7b 3bbe 90e6 a8bd
00000370: 1b40 093e 2306 77bd 63cf cabd 697c 873d
00000380: b19c 823d d91e 84bd 31ec f2bc 26a6 13bc
00000390: cc47 4abd a6be 9dbd 4ed7 3abd d516 a63d
000003a0: e233 9c3d 1068 6a3d f6bf 853d 3929 9a3d
000003b0: da6b f23c 8ffc 3e3d 96cb a53d 113d aebd
000003c0: ccc2 433d b9a8 293c ac9b f03c 3746 8a3d
000003d0: 56b0 083e 9c18 163d b3d3 ecbd b7dd 883d
000003e0: b27c 63bc a300 f6bd a9d0 d6bd aaa8 823d
000003f0: 5587 f9bd 2a43 8fbd 319b 243c 67c1 ccbd

fc2.bias f4 [84]
0.2511365 0.06706368 0.19188514 0.26870793 -0.11048422 0.009495822 -0.045958612 0.17611593
-0.117306165 -0.12787987 0.062071137 -0.15379645 -0.04707974 -0.0352094 -0.0974464 0.34471714
-0.13971153 -4.3387954e-05 -0.00690391 0.051774085 0.07043456 0.1375758 0.124770984 -0.17689832
-0.086183496 0.21689598 0.18964663 -0.04982416 -0.06273964 -0.050852276 -0.076366246 0.22934015
-0.03918291 0.3475268 0.040394884 0.16872585 0.19174436 0.14577419 -0.030828575 -0.037487715
0.062449917 0.22177674 0.15157908 0.042892102 -0.0154407825 -0.09574642 0.0240025 0.084290445
-0.0888423 0.029317867 -0.07282512 0.030250832 0.20707719 0.1154786 0.00070572575 0.09661503
0.032220427 -0.0041457405 0.008148303 0.05346172 0.27391523 -0.096032634 0.2716815 0.12612514
0.04229526 0.22002669 0.04804956 -0.09528693 0.08625264 -0.034816008 0.045027193 -0.13498326
0.39971763 0.4567689 -0.027684439 0.13894297 0.17018703 0.006934572 0.023910489 0.02842359
0.018148713 -0.0875144 0.08587833 0.20431046
00000000: f794 803e af58 893d 8a7d 443e 1694 893e
00000010: 8d45 e2bd 5d94 1b3c 193f 3cbd bc57 343e
00000020: 373e f0bd f1f2 02be 4e3e 7e3d d17c 1dbe
00000030: afd6 40bd bb37 10bd fa91 c7bd c47e b03e
00000040: 8a10 0fbe 76fb 35b8 323a e2bb 1011 543d
00000050: ff3f 903d ace0 0c3e ee87 ff3d d524 35be
00000060: f980 b0bd fb19 5e3e ba32 423e 6b14 4cbd
00000070: a47d 80bd 7a4a 50bd e865 9cbd 25d8 6a3e
00000080: 427e 20bd 08ef b13e 1b75 253d 78c6 2c3e
00000090: a258 443e d445 153e 358c fcbc b88c 19bd
000000a0: 7ccb 7f3d 7119 633e 8c37 1b3e a1af 2f3d
000000b0: 56fb 7cbc b316 c4bd e4a0 c43c 78a0 ac3d
000000c0: f4f2 b5bd 062c f03c 5625 95bd 98d0 f73c
000000d0: 0b0c 543e 0b80 ec3d 7400 393a 1ade c53d
000000e0: 91f9 033d fed8 87bb 7680 053c adfa 5a3d
000000f0: 9e3e 8c3e c2ac c4bd d619 8b3e f326 013e
00000100: cb3d 2d3d ad4e 613e 9ecf 443d cb25 c3bd
00000110: 39a5 b03d 3b9b 0ebd 6f6e 383d 0d39 0abe
00000120: caa7 cc3e 9ddd e93e 7aca e2bc 1147 0e3e
00000130: 8245 2e3e 683b e33b eedf c33c 97d8 e83c
00000140: 9cac 943c c03a b3bd fae0 af3d c336 513e

fc3.weight f4 [10, 84]
-0.10904474 0.11646296 0.179882 -0.12249969 0.14506832 0.13773592 -0.07774656 -0.09337162
0.020613465 0.12446786 -0.18737546 -0.18649457 0.109559275 -0.065521486 0.14853323 -0.2993116
-0.001187322 -0.06906766 0.068420835 -0.020450575 0.14351064 -0.14670263 -0.22495292 -0.13747582
-0.06415804 0.12206822 -0.10748899 0.023666868 -0.02737959 0.046227198 -0.09102687 0.15176874
0.19390222 0.32497388 0.08373595 0.012997526 0.08151928 -0.099627554 -0.0006572771 0.11530067
0.18615933 -0.13545352 -0.14188637 -0.07199362 -0.022317221 0.039633334 -0.06270196 0.08889434
-0.25675726 0.012448652 -0.049420588 -0.18206376 0.20260088 -0.052492235 0.06443857 -0.11907112
0.0755901 0.08216731 0.1544587 -0.05267776 0.11132567 0.027960952 -0.27268603 0.08218924
0.116554506 0.32885483 0.20803662 0.12806456 0.06724683 -0.0236714 -0.073795155 0.028541315
-0.21059608 -0.21649286 0.19769223 -0.12869798 0.20713729 0.052394364 0.11211683 0.18107364
0.15775253 0.104438685 0.0012010013 0.003081226 -0.17251265 -0.081599556 -0.12889625 -0.30616072
0.15596615 0.15758377 0.094451785 -0.10307106 0.06560899 0.22479515 -0.10803619 0.21464728
0.29355678 0.0056051644 0.053982917 -0.09414379 0.061592653 -0.040887322 -0.09294134 0.11754019
0.06275066 -0.114636585 -0.03890841 0.1851041 -0.059621166 -0.036199424 -0.3146849 0.30531567
0.23053111 -0.1410903 -0.042139154 -0.1532871 -0.050831407 -0.24714181 0.0370411 -0.05980947
0.15165192 -0.029611507 0.019613374 -0.15429083 0.34729365 -0.26327628 -0.07421532 0.03331071
0.23187687 0.08054119 -0.011836255 0.03629772 0.31334677 -0.040455293 -0.054625645 -0.016242951
-0.18713266 -0.16544941 -0.032513607 -0.12282412 -0.065332375 -0.08522789 -0.040218033 0.03289636
-0.16116467 0.28352484 -0.2815043 0.06162415 -0.07981803 -0.02297963 -0.0109503865 0.037678316
-0.045056954 0.062846094 -0.023507617 -0.0083842855 -0.24432261 -0.32979152 0.1553952 -0.035392914
0.044422254 0.26562542 0.127493 -0.018920295 0.0011677684 -0.040661763 -0.099527344 -0.093568966
0.0049702884 -0.14385933 -0.13006774 0.14418541 -0.14864999 -0.1714501 0.07425525 0.12682672
-0.07716936 -0.009817085 -0.05169073 0.025922252 -0.04865384 -0.024105733 -0.031029476 0.014890957
-0.06961178 0.042436775 -0.041517273 0.18362278 0.16825622 0.23880047 -0.0501124 -0.12260413
0.035968505 0.13036558 0.17112236 -0.1485926 0.023950098 0.12185315 0.11069744 0.17279033
-0.069611244 0.27837417 -0.037401505 0.0061806096 0.01522971 0.04481239 0.01229705 0.0999467
-0.012412681 0.042790063 0.005454382 0.015952885 0.024490284 0.050436657 0.12769425 0.008709887
-0.08862091 -0.07046287 0.085275225 0.04077394 0.14014906 -0.02887161 -0.071431756 0.03491069
0.014316478 0.027468875 -0.20105915 -0.10454806 -0.091921225 -0.13060194 0.05404052 -0.094000876
0.08848262 0.15135133 0.086779766 0.02834476 0.23624974 -0.057450835 0.039468423 -0.08120208
0.09959514 0.257795 0.078555256 -0.119192444 -0.095116936 0.023283847 -0.015167199 -0.10600337
0.10453361 0.0136090135 0.022218483 0.32733223 0.17163579 -0.06605296 0.05595383 0.15588032
00000000: d952 dfbd 2284 ee3d fd32 383e 1ee1 fabd
00000010: ca8c 143e a50a 0d3e 9739 9fbd 9f39 bfbd
00000020: 92dd a83c 01e9 fe3d 5adf 3fbe 6ff8 3ebe
00000030: 9d60 e03d 2130 86bd 1819 183e 5f3f 99be
00000040: ea9f 9bba 5873 8dbd 3920 8c3d f787 a7bc
00000050: 74f4 123e 3739 16be 0f5a 66be 76c6 0cbe
00000060: 4a65 83bd e7fe f93d 3023 dcbd 05e1 c13c
00000070: 294b e0bc bb58 3d3d 4c6c babd 4469 1b3e
00000080: 4e8e 463e fa62 a63e c17d ab3d 93f3 543c
00000090: 95f3 a63d 8809 ccbd 1f4d 2cba c222 ec3d
000000a0: 8da0 3e3e 54b4 0abe a94a 11be 6471 93bd
000000b0: 9bd2 b6bc 9056 223d e369 80bd 3c0e b63d
000000c0: b075 83be 6ef5 4b3c 3e6d 4abd ec6e 3abe
000000d0: 9b76 4f3e 1902 57bd 5ef8 833d 8fdb f3bd
000000e0: fbce 9a3d 5647 a83d 6c2a 1e3e a3c4 57bd
000000f0: b6fe e33d 5e0e e53c 819d 8bbe d552 a83d
00000100: 21b4 ee3d a95f a83e 8d07 553e 5b23 033e
00000110: b5b8 893d 86ea c1bc ea21 97bd 7acf e93c
00000120: 80a6 57be 4eb0 5dbe d56f 4a3e 67c9 03be
00000130: cc1b 543e 799b 563d 829d e53d 5e6b 393e
00000140: e189 213e f3e3 d53d eb6a 9d3a 65ee 493b
00000150: 28a7 30be ab1d a7bd 61fd 03be 19c1 9cbe
00000160: 97b5 1f3e a45d 213e f06f c13d eb16 d3bd
00000170: 025e 863d b330 663e 1442 ddbd 7fcc 5b3e
00000180: 134d 963e 87ab b73b 311d 5d3d 76ce c0bd
00000190: 9448 7c3d 7779 27bd 0758 bebd e9b8 f03d
000001a0: 6b83 803d 96c6 eabd 6d5e 1fbd ee8b 3d3e
000001b0: 5335 74bd d945 14bd 611e a1be 5652 9c3e
000001c0: 5910 6c3e fa79 10be 1b9a 2cbd 4bf7 1cbe
000001d0: 9834 50bd be12 7dbe 69b8 173d c6fa 74bd
000001e0: a44a 1b3e d593 f2bc 3aac a03c 6afe 1dbe
000001f0: 79d0 b13e 26cc 86be 34fe 97bd d070 083d
00000200: 2171 6d3e c8f2 a43d daec 41bc ebac 143d
00000210: fd6e a03e 73b4 25bd 24bf 5fbd f00f 85bc
00000220: b49f 3fbe 926b 29be fd2c 05bd 368b fbbd
00000230: fbcc 85bd f68b aebd aabb 24bd 55be 063d
00000240: 5a08 25be 2b2a 913e 5521 90be 9b69 7c3d
00000250: a377 a3bd c73f bcbc 4069 33bc 9454 1a3d
00000260: a48d 38bd 74b5 803d 0c93 c0bc 3e5e 09bc
00000270: b52f 7abe 6fda a8be eb1f 1f3e 29f8 10bd
00000280: 1cf4 353d 0e00 883e 868d 023e bcfe 9abc
00000290: ce0f 993a f38c 26bd fed4 cbbd 16a1 bfbd
000002a0: cddd a23b dc4f 13be 7a30 05be 57a5 133e
000002b0: b437 18be 9d90 2fbe 2313 983d ddde 013e
000002c0: f80a 9ebd d7d7 20bc a9b9 53bd e75a d43c
000002d0: 4049 47bd 6379 c5bc 8731 febc 33f9 733c
000002e0: 9f90 8ebd 2fd2 2d3d 040e 2abd 9c07 3c3e
000002f0: 5c4b 2c3e 1c88 743e a942 4dbd e017 fbbd
00000300: b653 133d 8e7e 053e b33a 2f3e a928 18be
00000310: ff32 c43c 258e f93d 57b5 e23d f3ef 303e
00000320: 5790 8ebd 0f87 8e3e 5232 19bd b686 ca3b
00000330: 0986 793c 328d 373d 9179 493c dbb0 cc3d
00000340: 8f5e 4bbc a244 2f3d acba b23b a0af 823c
00000350: d99f c83c ab96 4e3d 48c2 023e eab3 0e3c
00000360: e17e b5bd d64e 90bd c7a4 ae3d 9302 273d
00000370: 3c83 0f3e 2884 ecbc d04a 92bd 83fe 0e3d
00000380: a98f 6a3c 6806 e13c 73e2 4dbe 4b1d d6bd
00000390: 3241 bcbd 84bc 05be 9859 5d3d 8883 c0bd
000003a0: 6036 b53d d8fb 1a3e 97b9 b13d 4533 e83c
000003b0: 74eb 713e 9151 6bbd a4a9 213d 474d a6bd
000003c0: 89f8 cb3d b5fd 833e 94e1 a03d 2b1b f4bd
000003d0: abcc c2bd c4bd be3c d87f 78bc 4b18 d9bd
000003e0: b815 d63d 57f8 5e3c 8903 b63c 1798 a73e
000003f0: 4bc1 2f3e c646 87bd d82f 653d 179f 1f3e

fc3.bias f4 [10]
0.014538947 -0.58226377 0.18909252 0.17449738 0.5386588 -0.24044387 0.1454611 -0.36986125
0.34848797 -0.35970816
00000000: c334 6e3c 3d0f 15bf 78a1 413e 71af 323e
00000010: 8be5 093f eb36 76be c1f3 143e 745e bdbe
00000020: 046d b23e ab2b b8be
